…
    (3): ColorJiggle(ColorJiggle(brightness=0.7007364516975807, contrast=0.0, saturation=0.0, hue=0.0, p=1.0, p_batch=1.0, same_on_batch=False))
    (4): RandomAffine(RandomAffine(degrees=0, translate=(0.45317220543806647, 0), scale=None, shear=None, p=1.0, p_batch=1.0, same_on_batch=False, resample=bilinear, padding_mode=zeros, align_corners=False))
    (5): Normalize(Normalize(p=1.0, p_batch=1.0, same_on_batch=True, mean=tensor([0.4914, 0.4822, 0.4465]), std=tensor([0.2023, 0.1994, 0.2010])))
  )
)
[INFO] Select a CIL method (aser)
model
ResNet(
  (initial): ConvBlock(
    (block): Sequential(
      (0): Conv2d(3, 64, kernel_size=(3, 3), stride=(1, 1), padding=(1, 1), bias=False)
      (1): BatchNorm2d(64, eps=1e-06, momentum=0.1, affine=True, track_running_stats=True)
      (2): ReLU()
    )
  )
  (group1): ResidualBlock(
    (blocks): Sequential(
      (block0): BasicBlock(
        (conv1): ConvBlock(
          (block): Sequential(
            (0): Conv2d(64, 64, kernel_size=(3, 3), stride=(1, 1), padding=(1, 1), bias=False)
            (1): BatchNorm2d(64, eps=1e-06, momentum=0.1, affine=True, track_running_stats=True)
            (2): ReLU()
          )
        )
        (conv2): ConvBlock(
          (block): Sequential(
            (0): Conv2d(64, 64, kernel_size=(3, 3), stride=(1, 1), padding=(1, 1), bias=False)
            (1): BatchNorm2d(64, eps=1e-06, momentum=0.1, affine=True, track_running_stats=True)
          )
        )
        (activate): ReLU()
      )
      (block1): BasicBlock(
        (conv1): ConvBlock(
          (block): Sequential(
            (0): Conv2d(64, 64, kernel_size=(3, 3), stride=(1, 1), padding=(1, 1), bias=False)
            (1): BatchNorm2d(64, eps=1e-06, momentum=0.1, affine=True, track_running_stats=True)
            (2): ReLU()
          )
        )
        (conv2): ConvBlock(
          (block): Sequential(
            (0): Conv2d(64, 64, kernel_size=(3, 3), stride=(1, 1), padding=(1, 1), bias=False)
            (1): BatchNorm2d(64, eps=1e-06, momentum=0.1, affine=True, track_running_stats=True)
          )
        )
        (activate): ReLU()
      )
    )
  )
  (group2): ResidualBlock(
    (blocks): Sequential(
      (block0): BasicBlock(
        (downsample): ConvBlock(
          (block): Sequential(
            (0): Conv2d(64, 128, kernel_size=(1, 1), stride=(2, 2), bias=False)
            (1): BatchNorm2d(128, eps=1e-06, momentum=0.1, affine=True, track_running_stats=True)
            (2): ReLU()
          )
        )
        (conv1): ConvBlock(
          (block): Sequential(
            (0): Conv2d(64, 128, kernel_size=(3, 3), stride=(2, 2), padding=(1, 1), bias=False)
            (1): BatchNorm2d(128, eps=1e-06, momentum=0.1, affine=True, track_running_stats=True)
            (2): ReLU()
          )
        )
        (conv2): ConvBlock(
          (block): Sequential(
            (0): Conv2d(128, 128, kernel_size=(3, 3), stride=(1, 1), padding=(1, 1), bias=False)
            (1): BatchNorm2d(128, eps=1e-06, momentum=0.1, affine=True, track_running_stats=True)
          )
        )
        (activate): ReLU()
      )
      (block1): BasicBlock(
        (conv1): ConvBlock(
          (block): Sequential(
            (0): Conv2d(128, 128, kernel_size=(3, 3), stride=(1, 1), padding=(1, 1), bias=False)
            (1): BatchNorm2d(128, eps=1e-06, momentum=0.1, affine=True, track_running_stats=True)
            (2): ReLU()
          )
        )
        (conv2): ConvBlock(
          (block): Sequential(
            (0): Conv2d(128, 128, kernel_size=(3, 3), stride=(1, 1), padding=(1, 1), bias=False)
            (1): BatchNorm2d(128, eps=1e-06, momentum=0.1, affine=True, track_running_stats=True)
          )
        )
        (activate): ReLU()
      )
    )
  )
  (group3): ResidualBlock(
    (blocks): Sequential(
      (block0): BasicBlock(
        (downsample): ConvBlock(
          (block): Sequential(
            (0): Conv2d(128, 256, kernel_size=(1, 1), stride=(2, 2), bias=False)
            (1): BatchNorm2d(256, eps=1e-06, momentum=0.1, affine=True, track_running_stats=True)
            (2): ReLU()
          )
        )
        (conv1): ConvBlock(
          (block): Sequential(
            (0): Conv2d(128, 256, kernel_size=(3, 3), stride=(2, 2), padding=(1, 1), bias=False)
            (1): BatchNorm2d(256, eps=1e-06, momentum=0.1, affine=True, track_running_stats=True)
            (2): ReLU()
          )
        )
        (conv2): ConvBlock(
          (block): Sequential(
            (0): Conv2d(256, 256, kernel_size=(3, 3), stride=(1, 1), padding=(1, 1), bias=False)
            (1): BatchNorm2d(256, eps=1e-06, momentum=0.1, affine=True, track_running_stats=True)
          )
        )
        (activate): ReLU()
      )
      (block1): BasicBlock(
        (conv1): ConvBlock(
          (block): Sequential(
            (0): Conv2d(256, 256, kernel_size=(3, 3), stride=(1, 1), padding=(1, 1), bias=False)
            (1): BatchNorm2d(256, eps=1e-06, momentum=0.1, affine=True, track_running_stats=True)
            (2): ReLU()
          )
        )
        (conv2): ConvBlock(
          (block): Sequential(
            (0): Conv2d(256, 256, kernel_size=(3, 3), stride=(1, 1), padding=(1, 1), bias=False)
            (1): BatchNorm2d(256, eps=1e-06, momentum=0.1, affine=True, track_running_stats=True)
          )
        )
        (activate): ReLU()
      )
    )
  )
  (group4): ResidualBlock(
    (blocks): Sequential(
      (block0): BasicBlock(
        (downsample): ConvBlock(
          (block): Sequential(
            (0): Conv2d(256, 512, kernel_size=(1, 1), stride=(2, 2), bias=False)
            (1): BatchNorm2d(512, eps=1e-06, momentum=0.1, affine=True, track_running_stats=True)
            (2): ReLU()
          )
        )
        (conv1): ConvBlock(
          (block): Sequential(
            (0): Conv2d(256, 512, kernel_size=(3, 3), stride=(2, 2), padding=(1, 1), bias=False)
            (1): BatchNorm2d(512, eps=1e-06, momentum=0.1, affine=True, track_running_stats=True)
            (2): ReLU()
          )
        )
        (conv2): ConvBlock(
          (block): Sequential(
            (0): Conv2d(512, 512, kernel_size=(3, 3), stride=(1, 1), padding=(1, 1), bias=False)
            (1): BatchNorm2d(512, eps=1e-06, momentum=0.1, affine=True, track_running_stats=True)
          )
        )
        (activate): ReLU()
      )
      (block1): BasicBlock(
        (conv1): ConvBlock(
          (block): Sequential(
            (0): Conv2d(512, 512, kernel_size=(3, 3), stride=(1, 1), padding=(1, 1), bias=False)
            (1): BatchNorm2d(512, eps=1e-06, momentum=0.1, affine=True, track_running_stats=True)
            (2): ReLU()
          )
        )
        (conv2): ConvBlock(
          (block): Sequential(
            (0): Conv2d(512, 512, kernel_size=(3, 3), stride=(1, 1), padding=(1, 1), bias=False)
            (1): BatchNorm2d(512, eps=1e-06, momentum=0.1, affine=True, track_running_stats=True)
          )
        )
        (activate): ReLU()
      )
    )
  )
  (pool): AdaptiveAvgPool2d(output_size=1)
  (fc): Linear(in_features=512, out_features=1, bias=True)
)

###flops###
Warning: module ConvBlock is treated as a zero-op.
Warning: module BasicBlock is treated as a zero-op.
Warning: module ResidualBlock is treated as a zero-op.
Warning: module ResNet is treated as a zero-op.
conv input shape torch.Size([1, 3, 32, 32]) output shape torch.Size([1, 64, 32, 32])
in_channels 3 out_channels 64 filters_per_channel 64 kernel_dim [3, 3] output_dims [32, 32]
…
